{"config": {"layers": [{"config": {"batch_input_shape": [null, 60, 80, 3], "dtype": "float32", "sparse": false, "name": "input_1"}, "name": "input_1", "inbound_nodes": [], "class_name": "InputLayer"}, {"config": {"kernel_size": [3, 3], "dilation_rate": [1, 1], "bias_initializer": {"config": {}, "class_name": "Zeros"}, "kernel_initializer": {"config": {"seed": null, "distribution": "uniform", "mode": "fan_avg", "scale": 1.0}, "class_name": "VarianceScaling"}, "activation": "linear", "name": "conv2d_1", "use_bias": false, "activity_regularizer": null, "filters": 32, "trainable": true, "strides": [1, 1], "padding": "same", "kernel_regularizer": {"config": {"l1": 0.0, "l2": 0.0010000000474974513}, "class_name": "L1L2"}, "data_format": "channels_last", "bias_constraint": null, "bias_regularizer": null, "kernel_constraint": null}, "name": "conv2d_1", "inbound_nodes": [[["input_1", 0, 0, {}]]], "class_name": "Conv2D"}, {"config": {"beta_initializer": {"config": {}, "class_name": "Zeros"}, "epsilon": 0.001, "scale": true, "moving_mean_initializer": {"config": {}, "class_name": "Zeros"}, "beta_constraint": null, "name": "batch_normalization_1", "center": true, "axis": -1, "moving_variance_initializer": {"config": {}, "class_name": "Ones"}, "gamma_regularizer": null, "trainable": true, "momentum": 0.99, "beta_regularizer": null, "gamma_constraint": null, "gamma_initializer": {"config": {}, "class_name": "Ones"}}, "name": "batch_normalization_1", "inbound_nodes": [[["conv2d_1", 0, 0, {}]]], "class_name": "BatchNormalization"}, {"config": {"kernel_size": [3, 3], "dilation_rate": [1, 1], "use_bias": false, "pointwise_initializer": {"config": {"seed": null, "distribution": "uniform", "mode": "fan_avg", "scale": 1.0}, "class_name": "VarianceScaling"}, "name": "separable_conv2d_1", "depthwise_regularizer": null, "depthwise_constraint": null, "depthwise_initializer": {"config": {"seed": null, "distribution": "uniform", "mode": "fan_avg", "scale": 1.0}, "class_name": "VarianceScaling"}, "bias_constraint": null, "depth_multiplier": 1, "filters": 32, "activation": "linear", "bias_initializer": {"config": {}, "class_name": "Zeros"}, "strides": [1, 1], "padding": "same", "data_format": "channels_last", "pointwise_regularizer": null, "activity_regularizer": null, "pointwise_constraint": null, "bias_regularizer": null, "trainable": true}, "name": "separable_conv2d_1", "inbound_nodes": [[["batch_normalization_1", 0, 0, {}]]], "class_name": "SeparableConv2D"}, {"config": {"name": "activation_1", "trainable": true, "activation": "relu"}, "name": "activation_1", "inbound_nodes": [[["separable_conv2d_1", 0, 0, {}]]], "class_name": "Activation"}, {"config": {"beta_initializer": {"config": {}, "class_name": "Zeros"}, "epsilon": 0.001, "scale": true, "moving_mean_initializer": {"config": {}, "class_name": "Zeros"}, "beta_constraint": null, "name": "batch_normalization_3", "center": true, "axis": -1, "moving_variance_initializer": {"config": {}, "class_name": "Ones"}, "gamma_regularizer": null, "trainable": true, "momentum": 0.99, "beta_regularizer": null, "gamma_constraint": null, "gamma_initializer": {"config": {}, "class_name": "Ones"}}, "name": "batch_normalization_3", "inbound_nodes": [[["activation_1", 0, 0, {}]]], "class_name": "BatchNormalization"}, {"config": {"kernel_size": [3, 3], "dilation_rate": [1, 1], "use_bias": false, "pointwise_initializer": {"config": {"seed": null, "distribution": "uniform", "mode": "fan_avg", "scale": 1.0}, "class_name": "VarianceScaling"}, "name": "separable_conv2d_2", "depthwise_regularizer": null, "depthwise_constraint": null, "depthwise_initializer": {"config": {"seed": null, "distribution": "uniform", "mode": "fan_avg", "scale": 1.0}, "class_name": "VarianceScaling"}, "bias_constraint": null, "depth_multiplier": 1, "filters": 32, "activation": "linear", "bias_initializer": {"config": {}, "class_name": "Zeros"}, "strides": [1, 1], "padding": "same", "data_format": "channels_last", "pointwise_regularizer": null, "activity_regularizer": null, "pointwise_constraint": null, "bias_regularizer": null, "trainable": true}, "name": "separable_conv2d_2", "inbound_nodes": [[["batch_normalization_3", 0, 0, {}]]], "class_name": "SeparableConv2D"}, {"config": {"beta_initializer": {"config": {}, "class_name": "Zeros"}, "epsilon": 0.001, "scale": true, "moving_mean_initializer": {"config": {}, "class_name": "Zeros"}, "beta_constraint": null, "name": "batch_normalization_4", "center": true, "axis": -1, "moving_variance_initializer": {"config": {}, "class_name": "Ones"}, "gamma_regularizer": null, "trainable": true, "momentum": 0.99, "beta_regularizer": null, "gamma_constraint": null, "gamma_initializer": {"config": {}, "class_name": "Ones"}}, "name": "batch_normalization_4", "inbound_nodes": [[["separable_conv2d_2", 0, 0, {}]]], "class_name": "BatchNormalization"}, {"config": {"kernel_size": [1, 1], "dilation_rate": [1, 1], "bias_initializer": {"config": {}, "class_name": "Zeros"}, "kernel_initializer": {"config": {"seed": null, "distribution": "uniform", "mode": "fan_avg", "scale": 1.0}, "class_name": "VarianceScaling"}, "activation": "linear", "name": "conv2d_2", "use_bias": false, "activity_regularizer": null, "filters": 32, "trainable": true, "strides": [2, 2], "padding": "same", "kernel_regularizer": {"config": {"l1": 0.0, "l2": 0.0010000000474974513}, "class_name": "L1L2"}, "data_format": "channels_last", "bias_constraint": null, "bias_regularizer": null, "kernel_constraint": null}, "name": "conv2d_2", "inbound_nodes": [[["batch_normalization_1", 0, 0, {}]]], "class_name": "Conv2D"}, {"config": {"trainable": true, "strides": [2, 2], "padding": "same", "name": "max_pooling2d_1", "data_format": "channels_last", "pool_size": [3, 3]}, "name": "max_pooling2d_1", "inbound_nodes": [[["batch_normalization_4", 0, 0, {}]]], "class_name": "MaxPooling2D"}, {"config": {"beta_initializer": {"config": {}, "class_name": "Zeros"}, "epsilon": 0.001, "scale": true, "moving_mean_initializer": {"config": {}, "class_name": "Zeros"}, "beta_constraint": null, "name": "batch_normalization_2", "center": true, "axis": -1, "moving_variance_initializer": {"config": {}, "class_name": "Ones"}, "gamma_regularizer": null, "trainable": true, "momentum": 0.99, "beta_regularizer": null, "gamma_constraint": null, "gamma_initializer": {"config": {}, "class_name": "Ones"}}, "name": "batch_normalization_2", "inbound_nodes": [[["conv2d_2", 0, 0, {}]]], "class_name": "BatchNormalization"}, {"config": {"trainable": true, "name": "add_1"}, "name": "add_1", "inbound_nodes": [[["max_pooling2d_1", 0, 0, {}], ["batch_normalization_2", 0, 0, {}]]], "class_name": "Add"}, {"config": {"kernel_size": [3, 3], "dilation_rate": [1, 1], "use_bias": false, "pointwise_initializer": {"config": {"seed": null, "distribution": "uniform", "mode": "fan_avg", "scale": 1.0}, "class_name": "VarianceScaling"}, "name": "separable_conv2d_3", "depthwise_regularizer": null, "depthwise_constraint": null, "depthwise_initializer": {"config": {"seed": null, "distribution": "uniform", "mode": "fan_avg", "scale": 1.0}, "class_name": "VarianceScaling"}, "bias_constraint": null, "depth_multiplier": 1, "filters": 64, "activation": "linear", "bias_initializer": {"config": {}, "class_name": "Zeros"}, "strides": [1, 1], "padding": "same", "data_format": "channels_last", "pointwise_regularizer": null, "activity_regularizer": null, "pointwise_constraint": null, "bias_regularizer": null, "trainable": true}, "name": "separable_conv2d_3", "inbound_nodes": [[["add_1", 0, 0, {}]]], "class_name": "SeparableConv2D"}, {"config": {"name": "activation_2", "trainable": true, "activation": "relu"}, "name": "activation_2", "inbound_nodes": [[["separable_conv2d_3", 0, 0, {}]]], "class_name": "Activation"}, {"config": {"beta_initializer": {"config": {}, "class_name": "Zeros"}, "epsilon": 0.001, "scale": true, "moving_mean_initializer": {"config": {}, "class_name": "Zeros"}, "beta_constraint": null, "name": "batch_normalization_6", "center": true, "axis": -1, "moving_variance_initializer": {"config": {}, "class_name": "Ones"}, "gamma_regularizer": null, "trainable": true, "momentum": 0.99, "beta_regularizer": null, "gamma_constraint": null, "gamma_initializer": {"config": {}, "class_name": "Ones"}}, "name": "batch_normalization_6", "inbound_nodes": [[["activation_2", 0, 0, {}]]], "class_name": "BatchNormalization"}, {"config": {"kernel_size": [3, 3], "dilation_rate": [1, 1], "use_bias": false, "pointwise_initializer": {"config": {"seed": null, "distribution": "uniform", "mode": "fan_avg", "scale": 1.0}, "class_name": "VarianceScaling"}, "name": "separable_conv2d_4", "depthwise_regularizer": null, "depthwise_constraint": null, "depthwise_initializer": {"config": {"seed": null, "distribution": "uniform", "mode": "fan_avg", "scale": 1.0}, "class_name": "VarianceScaling"}, "bias_constraint": null, "depth_multiplier": 1, "filters": 64, "activation": "linear", "bias_initializer": {"config": {}, "class_name": "Zeros"}, "strides": [1, 1], "padding": "same", "data_format": "channels_last", "pointwise_regularizer": null, "activity_regularizer": null, "pointwise_constraint": null, "bias_regularizer": null, "trainable": true}, "name": "separable_conv2d_4", "inbound_nodes": [[["batch_normalization_6", 0, 0, {}]]], "class_name": "SeparableConv2D"}, {"config": {"beta_initializer": {"config": {}, "class_name": "Zeros"}, "epsilon": 0.001, "scale": true, "moving_mean_initializer": {"config": {}, "class_name": "Zeros"}, "beta_constraint": null, "name": "batch_normalization_7", "center": true, "axis": -1, "moving_variance_initializer": {"config": {}, "class_name": "Ones"}, "gamma_regularizer": null, "trainable": true, "momentum": 0.99, "beta_regularizer": null, "gamma_constraint": null, "gamma_initializer": {"config": {}, "class_name": "Ones"}}, "name": "batch_normalization_7", "inbound_nodes": [[["separable_conv2d_4", 0, 0, {}]]], "class_name": "BatchNormalization"}, {"config": {"kernel_size": [1, 1], "dilation_rate": [1, 1], "bias_initializer": {"config": {}, "class_name": "Zeros"}, "kernel_initializer": {"config": {"seed": null, "distribution": "uniform", "mode": "fan_avg", "scale": 1.0}, "class_name": "VarianceScaling"}, "activation": "linear", "name": "conv2d_3", "use_bias": false, "activity_regularizer": null, "filters": 64, "trainable": true, "strides": [2, 2], "padding": "same", "kernel_regularizer": {"config": {"l1": 0.0, "l2": 0.0010000000474974513}, "class_name": "L1L2"}, "data_format": "channels_last", "bias_constraint": null, "bias_regularizer": null, "kernel_constraint": null}, "name": "conv2d_3", "inbound_nodes": [[["add_1", 0, 0, {}]]], "class_name": "Conv2D"}, {"config": {"trainable": true, "strides": [2, 2], "padding": "same", "name": "max_pooling2d_2", "data_format": "channels_last", "pool_size": [3, 3]}, "name": "max_pooling2d_2", "inbound_nodes": [[["batch_normalization_7", 0, 0, {}]]], "class_name": "MaxPooling2D"}, {"config": {"beta_initializer": {"config": {}, "class_name": "Zeros"}, "epsilon": 0.001, "scale": true, "moving_mean_initializer": {"config": {}, "class_name": "Zeros"}, "beta_constraint": null, "name": "batch_normalization_5", "center": true, "axis": -1, "moving_variance_initializer": {"config": {}, "class_name": "Ones"}, "gamma_regularizer": null, "trainable": true, "momentum": 0.99, "beta_regularizer": null, "gamma_constraint": null, "gamma_initializer": {"config": {}, "class_name": "Ones"}}, "name": "batch_normalization_5", "inbound_nodes": [[["conv2d_3", 0, 0, {}]]], "class_name": "BatchNormalization"}, {"config": {"trainable": true, "name": "add_2"}, "name": "add_2", "inbound_nodes": [[["max_pooling2d_2", 0, 0, {}], ["batch_normalization_5", 0, 0, {}]]], "class_name": "Add"}, {"config": {"kernel_size": [3, 3], "dilation_rate": [1, 1], "use_bias": false, "pointwise_initializer": {"config": {"seed": null, "distribution": "uniform", "mode": "fan_avg", "scale": 1.0}, "class_name": "VarianceScaling"}, "name": "separable_conv2d_5", "depthwise_regularizer": null, "depthwise_constraint": null, "depthwise_initializer": {"config": {"seed": null, "distribution": "uniform", "mode": "fan_avg", "scale": 1.0}, "class_name": "VarianceScaling"}, "bias_constraint": null, "depth_multiplier": 1, "filters": 128, "activation": "linear", "bias_initializer": {"config": {}, "class_name": "Zeros"}, "strides": [1, 1], "padding": "same", "data_format": "channels_last", "pointwise_regularizer": null, "activity_regularizer": null, "pointwise_constraint": null, "bias_regularizer": null, "trainable": true}, "name": "separable_conv2d_5", "inbound_nodes": [[["add_2", 0, 0, {}]]], "class_name": "SeparableConv2D"}, {"config": {"name": "activation_3", "trainable": true, "activation": "relu"}, "name": "activation_3", "inbound_nodes": [[["separable_conv2d_5", 0, 0, {}]]], "class_name": "Activation"}, {"config": {"beta_initializer": {"config": {}, "class_name": "Zeros"}, "epsilon": 0.001, "scale": true, "moving_mean_initializer": {"config": {}, "class_name": "Zeros"}, "beta_constraint": null, "name": "batch_normalization_9", "center": true, "axis": -1, "moving_variance_initializer": {"config": {}, "class_name": "Ones"}, "gamma_regularizer": null, "trainable": true, "momentum": 0.99, "beta_regularizer": null, "gamma_constraint": null, "gamma_initializer": {"config": {}, "class_name": "Ones"}}, "name": "batch_normalization_9", "inbound_nodes": [[["activation_3", 0, 0, {}]]], "class_name": "BatchNormalization"}, {"config": {"kernel_size": [3, 3], "dilation_rate": [1, 1], "use_bias": false, "pointwise_initializer": {"config": {"seed": null, "distribution": "uniform", "mode": "fan_avg", "scale": 1.0}, "class_name": "VarianceScaling"}, "name": "separable_conv2d_6", "depthwise_regularizer": null, "depthwise_constraint": null, "depthwise_initializer": {"config": {"seed": null, "distribution": "uniform", "mode": "fan_avg", "scale": 1.0}, "class_name": "VarianceScaling"}, "bias_constraint": null, "depth_multiplier": 1, "filters": 128, "activation": "linear", "bias_initializer": {"config": {}, "class_name": "Zeros"}, "strides": [1, 1], "padding": "same", "data_format": "channels_last", "pointwise_regularizer": null, "activity_regularizer": null, "pointwise_constraint": null, "bias_regularizer": null, "trainable": true}, "name": "separable_conv2d_6", "inbound_nodes": [[["batch_normalization_9", 0, 0, {}]]], "class_name": "SeparableConv2D"}, {"config": {"beta_initializer": {"config": {}, "class_name": "Zeros"}, "epsilon": 0.001, "scale": true, "moving_mean_initializer": {"config": {}, "class_name": "Zeros"}, "beta_constraint": null, "name": "batch_normalization_10", "center": true, "axis": -1, "moving_variance_initializer": {"config": {}, "class_name": "Ones"}, "gamma_regularizer": null, "trainable": true, "momentum": 0.99, "beta_regularizer": null, "gamma_constraint": null, "gamma_initializer": {"config": {}, "class_name": "Ones"}}, "name": "batch_normalization_10", "inbound_nodes": [[["separable_conv2d_6", 0, 0, {}]]], "class_name": "BatchNormalization"}, {"config": {"kernel_size": [1, 1], "dilation_rate": [1, 1], "bias_initializer": {"config": {}, "class_name": "Zeros"}, "kernel_initializer": {"config": {"seed": null, "distribution": "uniform", "mode": "fan_avg", "scale": 1.0}, "class_name": "VarianceScaling"}, "activation": "linear", "name": "conv2d_4", "use_bias": false, "activity_regularizer": null, "filters": 128, "trainable": true, "strides": [2, 2], "padding": "same", "kernel_regularizer": {"config": {"l1": 0.0, "l2": 0.0010000000474974513}, "class_name": "L1L2"}, "data_format": "channels_last", "bias_constraint": null, "bias_regularizer": null, "kernel_constraint": null}, "name": "conv2d_4", "inbound_nodes": [[["add_2", 0, 0, {}]]], "class_name": "Conv2D"}, {"config": {"trainable": true, "strides": [2, 2], "padding": "same", "name": "max_pooling2d_3", "data_format": "channels_last", "pool_size": [3, 3]}, "name": "max_pooling2d_3", "inbound_nodes": [[["batch_normalization_10", 0, 0, {}]]], "class_name": "MaxPooling2D"}, {"config": {"beta_initializer": {"config": {}, "class_name": "Zeros"}, "epsilon": 0.001, "scale": true, "moving_mean_initializer": {"config": {}, "class_name": "Zeros"}, "beta_constraint": null, "name": "batch_normalization_8", "center": true, "axis": -1, "moving_variance_initializer": {"config": {}, "class_name": "Ones"}, "gamma_regularizer": null, "trainable": true, "momentum": 0.99, "beta_regularizer": null, "gamma_constraint": null, "gamma_initializer": {"config": {}, "class_name": "Ones"}}, "name": "batch_normalization_8", "inbound_nodes": [[["conv2d_4", 0, 0, {}]]], "class_name": "BatchNormalization"}, {"config": {"trainable": true, "name": "add_3"}, "name": "add_3", "inbound_nodes": [[["max_pooling2d_3", 0, 0, {}], ["batch_normalization_8", 0, 0, {}]]], "class_name": "Add"}, {"config": {"name": "activation_4", "trainable": true, "activation": "relu"}, "name": "activation_4", "inbound_nodes": [[["add_3", 0, 0, {}]]], "class_name": "Activation"}, {"config": {"kernel_size": [3, 3], "dilation_rate": [1, 1], "use_bias": false, "pointwise_initializer": {"config": {"seed": null, "distribution": "uniform", "mode": "fan_avg", "scale": 1.0}, "class_name": "VarianceScaling"}, "name": "separable_conv2d_7", "depthwise_regularizer": null, "depthwise_constraint": null, "depthwise_initializer": {"config": {"seed": null, "distribution": "uniform", "mode": "fan_avg", "scale": 1.0}, "class_name": "VarianceScaling"}, "bias_constraint": null, "depth_multiplier": 1, "filters": 128, "activation": "linear", "bias_initializer": {"config": {}, "class_name": "Zeros"}, "strides": [1, 1], "padding": "same", "data_format": "channels_last", "pointwise_regularizer": null, "activity_regularizer": null, "pointwise_constraint": null, "bias_regularizer": null, "trainable": true}, "name": "separable_conv2d_7", "inbound_nodes": [[["activation_4", 0, 0, {}]]], "class_name": "SeparableConv2D"}, {"config": {"beta_initializer": {"config": {}, "class_name": "Zeros"}, "epsilon": 0.001, "scale": true, "moving_mean_initializer": {"config": {}, "class_name": "Zeros"}, "beta_constraint": null, "name": "batch_normalization_11", "center": true, "axis": -1, "moving_variance_initializer": {"config": {}, "class_name": "Ones"}, "gamma_regularizer": null, "trainable": true, "momentum": 0.99, "beta_regularizer": null, "gamma_constraint": null, "gamma_initializer": {"config": {}, "class_name": "Ones"}}, "name": "batch_normalization_11", "inbound_nodes": [[["separable_conv2d_7", 0, 0, {}]]], "class_name": "BatchNormalization"}, {"config": {"name": "activation_5", "trainable": true, "activation": "relu"}, "name": "activation_5", "inbound_nodes": [[["batch_normalization_11", 0, 0, {}]]], "class_name": "Activation"}, {"config": {"kernel_size": [3, 3], "dilation_rate": [1, 1], "use_bias": false, "pointwise_initializer": {"config": {"seed": null, "distribution": "uniform", "mode": "fan_avg", "scale": 1.0}, "class_name": "VarianceScaling"}, "name": "separable_conv2d_8", "depthwise_regularizer": null, "depthwise_constraint": null, "depthwise_initializer": {"config": {"seed": null, "distribution": "uniform", "mode": "fan_avg", "scale": 1.0}, "class_name": "VarianceScaling"}, "bias_constraint": null, "depth_multiplier": 1, "filters": 128, "activation": "linear", "bias_initializer": {"config": {}, "class_name": "Zeros"}, "strides": [1, 1], "padding": "same", "data_format": "channels_last", "pointwise_regularizer": null, "activity_regularizer": null, "pointwise_constraint": null, "bias_regularizer": null, "trainable": true}, "name": "separable_conv2d_8", "inbound_nodes": [[["activation_5", 0, 0, {}]]], "class_name": "SeparableConv2D"}, {"config": {"beta_initializer": {"config": {}, "class_name": "Zeros"}, "epsilon": 0.001, "scale": true, "moving_mean_initializer": {"config": {}, "class_name": "Zeros"}, "beta_constraint": null, "name": "batch_normalization_12", "center": true, "axis": -1, "moving_variance_initializer": {"config": {}, "class_name": "Ones"}, "gamma_regularizer": null, "trainable": true, "momentum": 0.99, "beta_regularizer": null, "gamma_constraint": null, "gamma_initializer": {"config": {}, "class_name": "Ones"}}, "name": "batch_normalization_12", "inbound_nodes": [[["separable_conv2d_8", 0, 0, {}]]], "class_name": "BatchNormalization"}, {"config": {"name": "activation_6", "trainable": true, "activation": "relu"}, "name": "activation_6", "inbound_nodes": [[["batch_normalization_12", 0, 0, {}]]], "class_name": "Activation"}, {"config": {"kernel_size": [3, 3], "dilation_rate": [1, 1], "use_bias": false, "pointwise_initializer": {"config": {"seed": null, "distribution": "uniform", "mode": "fan_avg", "scale": 1.0}, "class_name": "VarianceScaling"}, "name": "separable_conv2d_9", "depthwise_regularizer": null, "depthwise_constraint": null, "depthwise_initializer": {"config": {"seed": null, "distribution": "uniform", "mode": "fan_avg", "scale": 1.0}, "class_name": "VarianceScaling"}, "bias_constraint": null, "depth_multiplier": 1, "filters": 128, "activation": "linear", "bias_initializer": {"config": {}, "class_name": "Zeros"}, "strides": [1, 1], "padding": "same", "data_format": "channels_last", "pointwise_regularizer": null, "activity_regularizer": null, "pointwise_constraint": null, "bias_regularizer": null, "trainable": true}, "name": "separable_conv2d_9", "inbound_nodes": [[["activation_6", 0, 0, {}]]], "class_name": "SeparableConv2D"}, {"config": {"beta_initializer": {"config": {}, "class_name": "Zeros"}, "epsilon": 0.001, "scale": true, "moving_mean_initializer": {"config": {}, "class_name": "Zeros"}, "beta_constraint": null, "name": "batch_normalization_13", "center": true, "axis": -1, "moving_variance_initializer": {"config": {}, "class_name": "Ones"}, "gamma_regularizer": null, "trainable": true, "momentum": 0.99, "beta_regularizer": null, "gamma_constraint": null, "gamma_initializer": {"config": {}, "class_name": "Ones"}}, "name": "batch_normalization_13", "inbound_nodes": [[["separable_conv2d_9", 0, 0, {}]]], "class_name": "BatchNormalization"}, {"config": {"trainable": true, "name": "add_4"}, "name": "add_4", "inbound_nodes": [[["batch_normalization_13", 0, 0, {}], ["add_3", 0, 0, {}]]], "class_name": "Add"}, {"config": {"name": "activation_7", "trainable": true, "activation": "relu"}, "name": "activation_7", "inbound_nodes": [[["add_4", 0, 0, {}]]], "class_name": "Activation"}, {"config": {"kernel_size": [3, 3], "dilation_rate": [1, 1], "use_bias": false, "pointwise_initializer": {"config": {"seed": null, "distribution": "uniform", "mode": "fan_avg", "scale": 1.0}, "class_name": "VarianceScaling"}, "name": "separable_conv2d_10", "depthwise_regularizer": null, "depthwise_constraint": null, "depthwise_initializer": {"config": {"seed": null, "distribution": "uniform", "mode": "fan_avg", "scale": 1.0}, "class_name": "VarianceScaling"}, "bias_constraint": null, "depth_multiplier": 1, "filters": 128, "activation": "linear", "bias_initializer": {"config": {}, "class_name": "Zeros"}, "strides": [1, 1], "padding": "same", "data_format": "channels_last", "pointwise_regularizer": null, "activity_regularizer": null, "pointwise_constraint": null, "bias_regularizer": null, "trainable": true}, "name": "separable_conv2d_10", "inbound_nodes": [[["activation_7", 0, 0, {}]]], "class_name": "SeparableConv2D"}, {"config": {"beta_initializer": {"config": {}, "class_name": "Zeros"}, "epsilon": 0.001, "scale": true, "moving_mean_initializer": {"config": {}, "class_name": "Zeros"}, "beta_constraint": null, "name": "batch_normalization_14", "center": true, "axis": -1, "moving_variance_initializer": {"config": {}, "class_name": "Ones"}, "gamma_regularizer": null, "trainable": true, "momentum": 0.99, "beta_regularizer": null, "gamma_constraint": null, "gamma_initializer": {"config": {}, "class_name": "Ones"}}, "name": "batch_normalization_14", "inbound_nodes": [[["separable_conv2d_10", 0, 0, {}]]], "class_name": "BatchNormalization"}, {"config": {"name": "activation_8", "trainable": true, "activation": "relu"}, "name": "activation_8", "inbound_nodes": [[["batch_normalization_14", 0, 0, {}]]], "class_name": "Activation"}, {"config": {"kernel_size": [3, 3], "dilation_rate": [1, 1], "use_bias": false, "pointwise_initializer": {"config": {"seed": null, "distribution": "uniform", "mode": "fan_avg", "scale": 1.0}, "class_name": "VarianceScaling"}, "name": "separable_conv2d_11", "depthwise_regularizer": null, "depthwise_constraint": null, "depthwise_initializer": {"config": {"seed": null, "distribution": "uniform", "mode": "fan_avg", "scale": 1.0}, "class_name": "VarianceScaling"}, "bias_constraint": null, "depth_multiplier": 1, "filters": 128, "activation": "linear", "bias_initializer": {"config": {}, "class_name": "Zeros"}, "strides": [1, 1], "padding": "same", "data_format": "channels_last", "pointwise_regularizer": null, "activity_regularizer": null, "pointwise_constraint": null, "bias_regularizer": null, "trainable": true}, "name": "separable_conv2d_11", "inbound_nodes": [[["activation_8", 0, 0, {}]]], "class_name": "SeparableConv2D"}, {"config": {"beta_initializer": {"config": {}, "class_name": "Zeros"}, "epsilon": 0.001, "scale": true, "moving_mean_initializer": {"config": {}, "class_name": "Zeros"}, "beta_constraint": null, "name": "batch_normalization_15", "center": true, "axis": -1, "moving_variance_initializer": {"config": {}, "class_name": "Ones"}, "gamma_regularizer": null, "trainable": true, "momentum": 0.99, "beta_regularizer": null, "gamma_constraint": null, "gamma_initializer": {"config": {}, "class_name": "Ones"}}, "name": "batch_normalization_15", "inbound_nodes": [[["separable_conv2d_11", 0, 0, {}]]], "class_name": "BatchNormalization"}, {"config": {"name": "activation_9", "trainable": true, "activation": "relu"}, "name": "activation_9", "inbound_nodes": [[["batch_normalization_15", 0, 0, {}]]], "class_name": "Activation"}, {"config": {"kernel_size": [3, 3], "dilation_rate": [1, 1], "use_bias": false, "pointwise_initializer": {"config": {"seed": null, "distribution": "uniform", "mode": "fan_avg", "scale": 1.0}, "class_name": "VarianceScaling"}, "name": "separable_conv2d_12", "depthwise_regularizer": null, "depthwise_constraint": null, "depthwise_initializer": {"config": {"seed": null, "distribution": "uniform", "mode": "fan_avg", "scale": 1.0}, "class_name": "VarianceScaling"}, "bias_constraint": null, "depth_multiplier": 1, "filters": 128, "activation": "linear", "bias_initializer": {"config": {}, "class_name": "Zeros"}, "strides": [1, 1], "padding": "same", "data_format": "channels_last", "pointwise_regularizer": null, "activity_regularizer": null, "pointwise_constraint": null, "bias_regularizer": null, "trainable": true}, "name": "separable_conv2d_12", "inbound_nodes": [[["activation_9", 0, 0, {}]]], "class_name": "SeparableConv2D"}, {"config": {"beta_initializer": {"config": {}, "class_name": "Zeros"}, "epsilon": 0.001, "scale": true, "moving_mean_initializer": {"config": {}, "class_name": "Zeros"}, "beta_constraint": null, "name": "batch_normalization_16", "center": true, "axis": -1, "moving_variance_initializer": {"config": {}, "class_name": "Ones"}, "gamma_regularizer": null, "trainable": true, "momentum": 0.99, "beta_regularizer": null, "gamma_constraint": null, "gamma_initializer": {"config": {}, "class_name": "Ones"}}, "name": "batch_normalization_16", "inbound_nodes": [[["separable_conv2d_12", 0, 0, {}]]], "class_name": "BatchNormalization"}, {"config": {"trainable": true, "name": "add_5"}, "name": "add_5", "inbound_nodes": [[["batch_normalization_16", 0, 0, {}], ["add_4", 0, 0, {}]]], "class_name": "Add"}, {"config": {"name": "activation_10", "trainable": true, "activation": "relu"}, "name": "activation_10", "inbound_nodes": [[["add_5", 0, 0, {}]]], "class_name": "Activation"}, {"config": {"kernel_size": [3, 3], "dilation_rate": [1, 1], "use_bias": false, "pointwise_initializer": {"config": {"seed": null, "distribution": "uniform", "mode": "fan_avg", "scale": 1.0}, "class_name": "VarianceScaling"}, "name": "separable_conv2d_13", "depthwise_regularizer": null, "depthwise_constraint": null, "depthwise_initializer": {"config": {"seed": null, "distribution": "uniform", "mode": "fan_avg", "scale": 1.0}, "class_name": "VarianceScaling"}, "bias_constraint": null, "depth_multiplier": 1, "filters": 128, "activation": "linear", "bias_initializer": {"config": {}, "class_name": "Zeros"}, "strides": [1, 1], "padding": "same", "data_format": "channels_last", "pointwise_regularizer": null, "activity_regularizer": null, "pointwise_constraint": null, "bias_regularizer": null, "trainable": true}, "name": "separable_conv2d_13", "inbound_nodes": [[["activation_10", 0, 0, {}]]], "class_name": "SeparableConv2D"}, {"config": {"beta_initializer": {"config": {}, "class_name": "Zeros"}, "epsilon": 0.001, "scale": true, "moving_mean_initializer": {"config": {}, "class_name": "Zeros"}, "beta_constraint": null, "name": "batch_normalization_17", "center": true, "axis": -1, "moving_variance_initializer": {"config": {}, "class_name": "Ones"}, "gamma_regularizer": null, "trainable": true, "momentum": 0.99, "beta_regularizer": null, "gamma_constraint": null, "gamma_initializer": {"config": {}, "class_name": "Ones"}}, "name": "batch_normalization_17", "inbound_nodes": [[["separable_conv2d_13", 0, 0, {}]]], "class_name": "BatchNormalization"}, {"config": {"name": "activation_11", "trainable": true, "activation": "relu"}, "name": "activation_11", "inbound_nodes": [[["batch_normalization_17", 0, 0, {}]]], "class_name": "Activation"}, {"config": {"kernel_size": [3, 3], "dilation_rate": [1, 1], "use_bias": false, "pointwise_initializer": {"config": {"seed": null, "distribution": "uniform", "mode": "fan_avg", "scale": 1.0}, "class_name": "VarianceScaling"}, "name": "separable_conv2d_14", "depthwise_regularizer": null, "depthwise_constraint": null, "depthwise_initializer": {"config": {"seed": null, "distribution": "uniform", "mode": "fan_avg", "scale": 1.0}, "class_name": "VarianceScaling"}, "bias_constraint": null, "depth_multiplier": 1, "filters": 128, "activation": "linear", "bias_initializer": {"config": {}, "class_name": "Zeros"}, "strides": [1, 1], "padding": "same", "data_format": "channels_last", "pointwise_regularizer": null, "activity_regularizer": null, "pointwise_constraint": null, "bias_regularizer": null, "trainable": true}, "name": "separable_conv2d_14", "inbound_nodes": [[["activation_11", 0, 0, {}]]], "class_name": "SeparableConv2D"}, {"config": {"beta_initializer": {"config": {}, "class_name": "Zeros"}, "epsilon": 0.001, "scale": true, "moving_mean_initializer": {"config": {}, "class_name": "Zeros"}, "beta_constraint": null, "name": "batch_normalization_18", "center": true, "axis": -1, "moving_variance_initializer": {"config": {}, "class_name": "Ones"}, "gamma_regularizer": null, "trainable": true, "momentum": 0.99, "beta_regularizer": null, "gamma_constraint": null, "gamma_initializer": {"config": {}, "class_name": "Ones"}}, "name": "batch_normalization_18", "inbound_nodes": [[["separable_conv2d_14", 0, 0, {}]]], "class_name": "BatchNormalization"}, {"config": {"name": "activation_12", "trainable": true, "activation": "relu"}, "name": "activation_12", "inbound_nodes": [[["batch_normalization_18", 0, 0, {}]]], "class_name": "Activation"}, {"config": {"kernel_size": [3, 3], "dilation_rate": [1, 1], "use_bias": false, "pointwise_initializer": {"config": {"seed": null, "distribution": "uniform", "mode": "fan_avg", "scale": 1.0}, "class_name": "VarianceScaling"}, "name": "separable_conv2d_15", "depthwise_regularizer": null, "depthwise_constraint": null, "depthwise_initializer": {"config": {"seed": null, "distribution": "uniform", "mode": "fan_avg", "scale": 1.0}, "class_name": "VarianceScaling"}, "bias_constraint": null, "depth_multiplier": 1, "filters": 128, "activation": "linear", "bias_initializer": {"config": {}, "class_name": "Zeros"}, "strides": [1, 1], "padding": "same", "data_format": "channels_last", "pointwise_regularizer": null, "activity_regularizer": null, "pointwise_constraint": null, "bias_regularizer": null, "trainable": true}, "name": "separable_conv2d_15", "inbound_nodes": [[["activation_12", 0, 0, {}]]], "class_name": "SeparableConv2D"}, {"config": {"beta_initializer": {"config": {}, "class_name": "Zeros"}, "epsilon": 0.001, "scale": true, "moving_mean_initializer": {"config": {}, "class_name": "Zeros"}, "beta_constraint": null, "name": "batch_normalization_19", "center": true, "axis": -1, "moving_variance_initializer": {"config": {}, "class_name": "Ones"}, "gamma_regularizer": null, "trainable": true, "momentum": 0.99, "beta_regularizer": null, "gamma_constraint": null, "gamma_initializer": {"config": {}, "class_name": "Ones"}}, "name": "batch_normalization_19", "inbound_nodes": [[["separable_conv2d_15", 0, 0, {}]]], "class_name": "BatchNormalization"}, {"config": {"trainable": true, "name": "add_6"}, "name": "add_6", "inbound_nodes": [[["batch_normalization_19", 0, 0, {}], ["add_5", 0, 0, {}]]], "class_name": "Add"}, {"config": {"name": "activation_13", "trainable": true, "activation": "relu"}, "name": "activation_13", "inbound_nodes": [[["add_6", 0, 0, {}]]], "class_name": "Activation"}, {"config": {"kernel_size": [3, 3], "dilation_rate": [1, 1], "use_bias": false, "pointwise_initializer": {"config": {"seed": null, "distribution": "uniform", "mode": "fan_avg", "scale": 1.0}, "class_name": "VarianceScaling"}, "name": "separable_conv2d_16", "depthwise_regularizer": null, "depthwise_constraint": null, "depthwise_initializer": {"config": {"seed": null, "distribution": "uniform", "mode": "fan_avg", "scale": 1.0}, "class_name": "VarianceScaling"}, "bias_constraint": null, "depth_multiplier": 1, "filters": 128, "activation": "linear", "bias_initializer": {"config": {}, "class_name": "Zeros"}, "strides": [1, 1], "padding": "same", "data_format": "channels_last", "pointwise_regularizer": null, "activity_regularizer": null, "pointwise_constraint": null, "bias_regularizer": null, "trainable": true}, "name": "separable_conv2d_16", "inbound_nodes": [[["activation_13", 0, 0, {}]]], "class_name": "SeparableConv2D"}, {"config": {"beta_initializer": {"config": {}, "class_name": "Zeros"}, "epsilon": 0.001, "scale": true, "moving_mean_initializer": {"config": {}, "class_name": "Zeros"}, "beta_constraint": null, "name": "batch_normalization_20", "center": true, "axis": -1, "moving_variance_initializer": {"config": {}, "class_name": "Ones"}, "gamma_regularizer": null, "trainable": true, "momentum": 0.99, "beta_regularizer": null, "gamma_constraint": null, "gamma_initializer": {"config": {}, "class_name": "Ones"}}, "name": "batch_normalization_20", "inbound_nodes": [[["separable_conv2d_16", 0, 0, {}]]], "class_name": "BatchNormalization"}, {"config": {"name": "activation_14", "trainable": true, "activation": "relu"}, "name": "activation_14", "inbound_nodes": [[["batch_normalization_20", 0, 0, {}]]], "class_name": "Activation"}, {"config": {"kernel_size": [3, 3], "dilation_rate": [1, 1], "use_bias": false, "pointwise_initializer": {"config": {"seed": null, "distribution": "uniform", "mode": "fan_avg", "scale": 1.0}, "class_name": "VarianceScaling"}, "name": "separable_conv2d_17", "depthwise_regularizer": null, "depthwise_constraint": null, "depthwise_initializer": {"config": {"seed": null, "distribution": "uniform", "mode": "fan_avg", "scale": 1.0}, "class_name": "VarianceScaling"}, "bias_constraint": null, "depth_multiplier": 1, "filters": 128, "activation": "linear", "bias_initializer": {"config": {}, "class_name": "Zeros"}, "strides": [1, 1], "padding": "same", "data_format": "channels_last", "pointwise_regularizer": null, "activity_regularizer": null, "pointwise_constraint": null, "bias_regularizer": null, "trainable": true}, "name": "separable_conv2d_17", "inbound_nodes": [[["activation_14", 0, 0, {}]]], "class_name": "SeparableConv2D"}, {"config": {"beta_initializer": {"config": {}, "class_name": "Zeros"}, "epsilon": 0.001, "scale": true, "moving_mean_initializer": {"config": {}, "class_name": "Zeros"}, "beta_constraint": null, "name": "batch_normalization_21", "center": true, "axis": -1, "moving_variance_initializer": {"config": {}, "class_name": "Ones"}, "gamma_regularizer": null, "trainable": true, "momentum": 0.99, "beta_regularizer": null, "gamma_constraint": null, "gamma_initializer": {"config": {}, "class_name": "Ones"}}, "name": "batch_normalization_21", "inbound_nodes": [[["separable_conv2d_17", 0, 0, {}]]], "class_name": "BatchNormalization"}, {"config": {"name": "activation_15", "trainable": true, "activation": "relu"}, "name": "activation_15", "inbound_nodes": [[["batch_normalization_21", 0, 0, {}]]], "class_name": "Activation"}, {"config": {"kernel_size": [3, 3], "dilation_rate": [1, 1], "use_bias": false, "pointwise_initializer": {"config": {"seed": null, "distribution": "uniform", "mode": "fan_avg", "scale": 1.0}, "class_name": "VarianceScaling"}, "name": "separable_conv2d_18", "depthwise_regularizer": null, "depthwise_constraint": null, "depthwise_initializer": {"config": {"seed": null, "distribution": "uniform", "mode": "fan_avg", "scale": 1.0}, "class_name": "VarianceScaling"}, "bias_constraint": null, "depth_multiplier": 1, "filters": 128, "activation": "linear", "bias_initializer": {"config": {}, "class_name": "Zeros"}, "strides": [1, 1], "padding": "same", "data_format": "channels_last", "pointwise_regularizer": null, "activity_regularizer": null, "pointwise_constraint": null, "bias_regularizer": null, "trainable": true}, "name": "separable_conv2d_18", "inbound_nodes": [[["activation_15", 0, 0, {}]]], "class_name": "SeparableConv2D"}, {"config": {"beta_initializer": {"config": {}, "class_name": "Zeros"}, "epsilon": 0.001, "scale": true, "moving_mean_initializer": {"config": {}, "class_name": "Zeros"}, "beta_constraint": null, "name": "batch_normalization_22", "center": true, "axis": -1, "moving_variance_initializer": {"config": {}, "class_name": "Ones"}, "gamma_regularizer": null, "trainable": true, "momentum": 0.99, "beta_regularizer": null, "gamma_constraint": null, "gamma_initializer": {"config": {}, "class_name": "Ones"}}, "name": "batch_normalization_22", "inbound_nodes": [[["separable_conv2d_18", 0, 0, {}]]], "class_name": "BatchNormalization"}, {"config": {"trainable": true, "name": "add_7"}, "name": "add_7", "inbound_nodes": [[["batch_normalization_22", 0, 0, {}], ["add_6", 0, 0, {}]]], "class_name": "Add"}, {"config": {"name": "activation_16", "trainable": true, "activation": "relu"}, "name": "activation_16", "inbound_nodes": [[["add_7", 0, 0, {}]]], "class_name": "Activation"}, {"config": {"kernel_size": [3, 3], "dilation_rate": [1, 1], "use_bias": false, "pointwise_initializer": {"config": {"seed": null, "distribution": "uniform", "mode": "fan_avg", "scale": 1.0}, "class_name": "VarianceScaling"}, "name": "separable_conv2d_19", "depthwise_regularizer": null, "depthwise_constraint": null, "depthwise_initializer": {"config": {"seed": null, "distribution": "uniform", "mode": "fan_avg", "scale": 1.0}, "class_name": "VarianceScaling"}, "bias_constraint": null, "depth_multiplier": 1, "filters": 128, "activation": "linear", "bias_initializer": {"config": {}, "class_name": "Zeros"}, "strides": [1, 1], "padding": "same", "data_format": "channels_last", "pointwise_regularizer": null, "activity_regularizer": null, "pointwise_constraint": null, "bias_regularizer": null, "trainable": true}, "name": "separable_conv2d_19", "inbound_nodes": [[["activation_16", 0, 0, {}]]], "class_name": "SeparableConv2D"}, {"config": {"beta_initializer": {"config": {}, "class_name": "Zeros"}, "epsilon": 0.001, "scale": true, "moving_mean_initializer": {"config": {}, "class_name": "Zeros"}, "beta_constraint": null, "name": "batch_normalization_23", "center": true, "axis": -1, "moving_variance_initializer": {"config": {}, "class_name": "Ones"}, "gamma_regularizer": null, "trainable": true, "momentum": 0.99, "beta_regularizer": null, "gamma_constraint": null, "gamma_initializer": {"config": {}, "class_name": "Ones"}}, "name": "batch_normalization_23", "inbound_nodes": [[["separable_conv2d_19", 0, 0, {}]]], "class_name": "BatchNormalization"}, {"config": {"name": "activation_17", "trainable": true, "activation": "relu"}, "name": "activation_17", "inbound_nodes": [[["batch_normalization_23", 0, 0, {}]]], "class_name": "Activation"}, {"config": {"kernel_size": [3, 3], "dilation_rate": [1, 1], "use_bias": false, "pointwise_initializer": {"config": {"seed": null, "distribution": "uniform", "mode": "fan_avg", "scale": 1.0}, "class_name": "VarianceScaling"}, "name": "separable_conv2d_20", "depthwise_regularizer": null, "depthwise_constraint": null, "depthwise_initializer": {"config": {"seed": null, "distribution": "uniform", "mode": "fan_avg", "scale": 1.0}, "class_name": "VarianceScaling"}, "bias_constraint": null, "depth_multiplier": 1, "filters": 128, "activation": "linear", "bias_initializer": {"config": {}, "class_name": "Zeros"}, "strides": [1, 1], "padding": "same", "data_format": "channels_last", "pointwise_regularizer": null, "activity_regularizer": null, "pointwise_constraint": null, "bias_regularizer": null, "trainable": true}, "name": "separable_conv2d_20", "inbound_nodes": [[["activation_17", 0, 0, {}]]], "class_name": "SeparableConv2D"}, {"config": {"beta_initializer": {"config": {}, "class_name": "Zeros"}, "epsilon": 0.001, "scale": true, "moving_mean_initializer": {"config": {}, "class_name": "Zeros"}, "beta_constraint": null, "name": "batch_normalization_24", "center": true, "axis": -1, "moving_variance_initializer": {"config": {}, "class_name": "Ones"}, "gamma_regularizer": null, "trainable": true, "momentum": 0.99, "beta_regularizer": null, "gamma_constraint": null, "gamma_initializer": {"config": {}, "class_name": "Ones"}}, "name": "batch_normalization_24", "inbound_nodes": [[["separable_conv2d_20", 0, 0, {}]]], "class_name": "BatchNormalization"}, {"config": {"name": "activation_18", "trainable": true, "activation": "relu"}, "name": "activation_18", "inbound_nodes": [[["batch_normalization_24", 0, 0, {}]]], "class_name": "Activation"}, {"config": {"kernel_size": [3, 3], "dilation_rate": [1, 1], "use_bias": false, "pointwise_initializer": {"config": {"seed": null, "distribution": "uniform", "mode": "fan_avg", "scale": 1.0}, "class_name": "VarianceScaling"}, "name": "separable_conv2d_21", "depthwise_regularizer": null, "depthwise_constraint": null, "depthwise_initializer": {"config": {"seed": null, "distribution": "uniform", "mode": "fan_avg", "scale": 1.0}, "class_name": "VarianceScaling"}, "bias_constraint": null, "depth_multiplier": 1, "filters": 128, "activation": "linear", "bias_initializer": {"config": {}, "class_name": "Zeros"}, "strides": [1, 1], "padding": "same", "data_format": "channels_last", "pointwise_regularizer": null, "activity_regularizer": null, "pointwise_constraint": null, "bias_regularizer": null, "trainable": true}, "name": "separable_conv2d_21", "inbound_nodes": [[["activation_18", 0, 0, {}]]], "class_name": "SeparableConv2D"}, {"config": {"beta_initializer": {"config": {}, "class_name": "Zeros"}, "epsilon": 0.001, "scale": true, "moving_mean_initializer": {"config": {}, "class_name": "Zeros"}, "beta_constraint": null, "name": "batch_normalization_25", "center": true, "axis": -1, "moving_variance_initializer": {"config": {}, "class_name": "Ones"}, "gamma_regularizer": null, "trainable": true, "momentum": 0.99, "beta_regularizer": null, "gamma_constraint": null, "gamma_initializer": {"config": {}, "class_name": "Ones"}}, "name": "batch_normalization_25", "inbound_nodes": [[["separable_conv2d_21", 0, 0, {}]]], "class_name": "BatchNormalization"}, {"config": {"trainable": true, "name": "add_8"}, "name": "add_8", "inbound_nodes": [[["batch_normalization_25", 0, 0, {}], ["add_7", 0, 0, {}]]], "class_name": "Add"}, {"config": {"name": "activation_19", "trainable": true, "activation": "relu"}, "name": "activation_19", "inbound_nodes": [[["add_8", 0, 0, {}]]], "class_name": "Activation"}, {"config": {"kernel_size": [3, 3], "dilation_rate": [1, 1], "use_bias": false, "pointwise_initializer": {"config": {"seed": null, "distribution": "uniform", "mode": "fan_avg", "scale": 1.0}, "class_name": "VarianceScaling"}, "name": "separable_conv2d_22", "depthwise_regularizer": null, "depthwise_constraint": null, "depthwise_initializer": {"config": {"seed": null, "distribution": "uniform", "mode": "fan_avg", "scale": 1.0}, "class_name": "VarianceScaling"}, "bias_constraint": null, "depth_multiplier": 1, "filters": 128, "activation": "linear", "bias_initializer": {"config": {}, "class_name": "Zeros"}, "strides": [1, 1], "padding": "same", "data_format": "channels_last", "pointwise_regularizer": null, "activity_regularizer": null, "pointwise_constraint": null, "bias_regularizer": null, "trainable": true}, "name": "separable_conv2d_22", "inbound_nodes": [[["activation_19", 0, 0, {}]]], "class_name": "SeparableConv2D"}, {"config": {"beta_initializer": {"config": {}, "class_name": "Zeros"}, "epsilon": 0.001, "scale": true, "moving_mean_initializer": {"config": {}, "class_name": "Zeros"}, "beta_constraint": null, "name": "batch_normalization_26", "center": true, "axis": -1, "moving_variance_initializer": {"config": {}, "class_name": "Ones"}, "gamma_regularizer": null, "trainable": true, "momentum": 0.99, "beta_regularizer": null, "gamma_constraint": null, "gamma_initializer": {"config": {}, "class_name": "Ones"}}, "name": "batch_normalization_26", "inbound_nodes": [[["separable_conv2d_22", 0, 0, {}]]], "class_name": "BatchNormalization"}, {"config": {"name": "activation_20", "trainable": true, "activation": "relu"}, "name": "activation_20", "inbound_nodes": [[["batch_normalization_26", 0, 0, {}]]], "class_name": "Activation"}, {"config": {"kernel_size": [3, 3], "dilation_rate": [1, 1], "use_bias": false, "pointwise_initializer": {"config": {"seed": null, "distribution": "uniform", "mode": "fan_avg", "scale": 1.0}, "class_name": "VarianceScaling"}, "name": "separable_conv2d_23", "depthwise_regularizer": null, "depthwise_constraint": null, "depthwise_initializer": {"config": {"seed": null, "distribution": "uniform", "mode": "fan_avg", "scale": 1.0}, "class_name": "VarianceScaling"}, "bias_constraint": null, "depth_multiplier": 1, "filters": 128, "activation": "linear", "bias_initializer": {"config": {}, "class_name": "Zeros"}, "strides": [1, 1], "padding": "same", "data_format": "channels_last", "pointwise_regularizer": null, "activity_regularizer": null, "pointwise_constraint": null, "bias_regularizer": null, "trainable": true}, "name": "separable_conv2d_23", "inbound_nodes": [[["activation_20", 0, 0, {}]]], "class_name": "SeparableConv2D"}, {"config": {"beta_initializer": {"config": {}, "class_name": "Zeros"}, "epsilon": 0.001, "scale": true, "moving_mean_initializer": {"config": {}, "class_name": "Zeros"}, "beta_constraint": null, "name": "batch_normalization_27", "center": true, "axis": -1, "moving_variance_initializer": {"config": {}, "class_name": "Ones"}, "gamma_regularizer": null, "trainable": true, "momentum": 0.99, "beta_regularizer": null, "gamma_constraint": null, "gamma_initializer": {"config": {}, "class_name": "Ones"}}, "name": "batch_normalization_27", "inbound_nodes": [[["separable_conv2d_23", 0, 0, {}]]], "class_name": "BatchNormalization"}, {"config": {"name": "activation_21", "trainable": true, "activation": "relu"}, "name": "activation_21", "inbound_nodes": [[["batch_normalization_27", 0, 0, {}]]], "class_name": "Activation"}, {"config": {"kernel_size": [3, 3], "dilation_rate": [1, 1], "use_bias": false, "pointwise_initializer": {"config": {"seed": null, "distribution": "uniform", "mode": "fan_avg", "scale": 1.0}, "class_name": "VarianceScaling"}, "name": "separable_conv2d_24", "depthwise_regularizer": null, "depthwise_constraint": null, "depthwise_initializer": {"config": {"seed": null, "distribution": "uniform", "mode": "fan_avg", "scale": 1.0}, "class_name": "VarianceScaling"}, "bias_constraint": null, "depth_multiplier": 1, "filters": 128, "activation": "linear", "bias_initializer": {"config": {}, "class_name": "Zeros"}, "strides": [1, 1], "padding": "same", "data_format": "channels_last", "pointwise_regularizer": null, "activity_regularizer": null, "pointwise_constraint": null, "bias_regularizer": null, "trainable": true}, "name": "separable_conv2d_24", "inbound_nodes": [[["activation_21", 0, 0, {}]]], "class_name": "SeparableConv2D"}, {"config": {"beta_initializer": {"config": {}, "class_name": "Zeros"}, "epsilon": 0.001, "scale": true, "moving_mean_initializer": {"config": {}, "class_name": "Zeros"}, "beta_constraint": null, "name": "batch_normalization_28", "center": true, "axis": -1, "moving_variance_initializer": {"config": {}, "class_name": "Ones"}, "gamma_regularizer": null, "trainable": true, "momentum": 0.99, "beta_regularizer": null, "gamma_constraint": null, "gamma_initializer": {"config": {}, "class_name": "Ones"}}, "name": "batch_normalization_28", "inbound_nodes": [[["separable_conv2d_24", 0, 0, {}]]], "class_name": "BatchNormalization"}, {"config": {"trainable": true, "name": "add_9"}, "name": "add_9", "inbound_nodes": [[["batch_normalization_28", 0, 0, {}], ["add_8", 0, 0, {}]]], "class_name": "Add"}, {"config": {"name": "activation_22", "trainable": true, "activation": "relu"}, "name": "activation_22", "inbound_nodes": [[["add_9", 0, 0, {}]]], "class_name": "Activation"}, {"config": {"kernel_size": [3, 3], "dilation_rate": [1, 1], "use_bias": false, "pointwise_initializer": {"config": {"seed": null, "distribution": "uniform", "mode": "fan_avg", "scale": 1.0}, "class_name": "VarianceScaling"}, "name": "separable_conv2d_25", "depthwise_regularizer": null, "depthwise_constraint": null, "depthwise_initializer": {"config": {"seed": null, "distribution": "uniform", "mode": "fan_avg", "scale": 1.0}, "class_name": "VarianceScaling"}, "bias_constraint": null, "depth_multiplier": 1, "filters": 128, "activation": "linear", "bias_initializer": {"config": {}, "class_name": "Zeros"}, "strides": [1, 1], "padding": "same", "data_format": "channels_last", "pointwise_regularizer": null, "activity_regularizer": null, "pointwise_constraint": null, "bias_regularizer": null, "trainable": true}, "name": "separable_conv2d_25", "inbound_nodes": [[["activation_22", 0, 0, {}]]], "class_name": "SeparableConv2D"}, {"config": {"beta_initializer": {"config": {}, "class_name": "Zeros"}, "epsilon": 0.001, "scale": true, "moving_mean_initializer": {"config": {}, "class_name": "Zeros"}, "beta_constraint": null, "name": "batch_normalization_29", "center": true, "axis": -1, "moving_variance_initializer": {"config": {}, "class_name": "Ones"}, "gamma_regularizer": null, "trainable": true, "momentum": 0.99, "beta_regularizer": null, "gamma_constraint": null, "gamma_initializer": {"config": {}, "class_name": "Ones"}}, "name": "batch_normalization_29", "inbound_nodes": [[["separable_conv2d_25", 0, 0, {}]]], "class_name": "BatchNormalization"}, {"config": {"name": "activation_23", "trainable": true, "activation": "relu"}, "name": "activation_23", "inbound_nodes": [[["batch_normalization_29", 0, 0, {}]]], "class_name": "Activation"}, {"config": {"kernel_size": [3, 3], "dilation_rate": [1, 1], "use_bias": false, "pointwise_initializer": {"config": {"seed": null, "distribution": "uniform", "mode": "fan_avg", "scale": 1.0}, "class_name": "VarianceScaling"}, "name": "separable_conv2d_26", "depthwise_regularizer": null, "depthwise_constraint": null, "depthwise_initializer": {"config": {"seed": null, "distribution": "uniform", "mode": "fan_avg", "scale": 1.0}, "class_name": "VarianceScaling"}, "bias_constraint": null, "depth_multiplier": 1, "filters": 128, "activation": "linear", "bias_initializer": {"config": {}, "class_name": "Zeros"}, "strides": [1, 1], "padding": "same", "data_format": "channels_last", "pointwise_regularizer": null, "activity_regularizer": null, "pointwise_constraint": null, "bias_regularizer": null, "trainable": true}, "name": "separable_conv2d_26", "inbound_nodes": [[["activation_23", 0, 0, {}]]], "class_name": "SeparableConv2D"}, {"config": {"beta_initializer": {"config": {}, "class_name": "Zeros"}, "epsilon": 0.001, "scale": true, "moving_mean_initializer": {"config": {}, "class_name": "Zeros"}, "beta_constraint": null, "name": "batch_normalization_30", "center": true, "axis": -1, "moving_variance_initializer": {"config": {}, "class_name": "Ones"}, "gamma_regularizer": null, "trainable": true, "momentum": 0.99, "beta_regularizer": null, "gamma_constraint": null, "gamma_initializer": {"config": {}, "class_name": "Ones"}}, "name": "batch_normalization_30", "inbound_nodes": [[["separable_conv2d_26", 0, 0, {}]]], "class_name": "BatchNormalization"}, {"config": {"name": "activation_24", "trainable": true, "activation": "relu"}, "name": "activation_24", "inbound_nodes": [[["batch_normalization_30", 0, 0, {}]]], "class_name": "Activation"}, {"config": {"kernel_size": [3, 3], "dilation_rate": [1, 1], "use_bias": false, "pointwise_initializer": {"config": {"seed": null, "distribution": "uniform", "mode": "fan_avg", "scale": 1.0}, "class_name": "VarianceScaling"}, "name": "separable_conv2d_27", "depthwise_regularizer": null, "depthwise_constraint": null, "depthwise_initializer": {"config": {"seed": null, "distribution": "uniform", "mode": "fan_avg", "scale": 1.0}, "class_name": "VarianceScaling"}, "bias_constraint": null, "depth_multiplier": 1, "filters": 128, "activation": "linear", "bias_initializer": {"config": {}, "class_name": "Zeros"}, "strides": [1, 1], "padding": "same", "data_format": "channels_last", "pointwise_regularizer": null, "activity_regularizer": null, "pointwise_constraint": null, "bias_regularizer": null, "trainable": true}, "name": "separable_conv2d_27", "inbound_nodes": [[["activation_24", 0, 0, {}]]], "class_name": "SeparableConv2D"}, {"config": {"beta_initializer": {"config": {}, "class_name": "Zeros"}, "epsilon": 0.001, "scale": true, "moving_mean_initializer": {"config": {}, "class_name": "Zeros"}, "beta_constraint": null, "name": "batch_normalization_31", "center": true, "axis": -1, "moving_variance_initializer": {"config": {}, "class_name": "Ones"}, "gamma_regularizer": null, "trainable": true, "momentum": 0.99, "beta_regularizer": null, "gamma_constraint": null, "gamma_initializer": {"config": {}, "class_name": "Ones"}}, "name": "batch_normalization_31", "inbound_nodes": [[["separable_conv2d_27", 0, 0, {}]]], "class_name": "BatchNormalization"}, {"config": {"trainable": true, "name": "add_10"}, "name": "add_10", "inbound_nodes": [[["batch_normalization_31", 0, 0, {}], ["add_9", 0, 0, {}]]], "class_name": "Add"}, {"config": {"name": "activation_25", "trainable": true, "activation": "relu"}, "name": "activation_25", "inbound_nodes": [[["add_10", 0, 0, {}]]], "class_name": "Activation"}, {"config": {"kernel_size": [3, 3], "dilation_rate": [1, 1], "use_bias": false, "pointwise_initializer": {"config": {"seed": null, "distribution": "uniform", "mode": "fan_avg", "scale": 1.0}, "class_name": "VarianceScaling"}, "name": "separable_conv2d_28", "depthwise_regularizer": null, "depthwise_constraint": null, "depthwise_initializer": {"config": {"seed": null, "distribution": "uniform", "mode": "fan_avg", "scale": 1.0}, "class_name": "VarianceScaling"}, "bias_constraint": null, "depth_multiplier": 1, "filters": 128, "activation": "linear", "bias_initializer": {"config": {}, "class_name": "Zeros"}, "strides": [1, 1], "padding": "same", "data_format": "channels_last", "pointwise_regularizer": null, "activity_regularizer": null, "pointwise_constraint": null, "bias_regularizer": null, "trainable": true}, "name": "separable_conv2d_28", "inbound_nodes": [[["activation_25", 0, 0, {}]]], "class_name": "SeparableConv2D"}, {"config": {"beta_initializer": {"config": {}, "class_name": "Zeros"}, "epsilon": 0.001, "scale": true, "moving_mean_initializer": {"config": {}, "class_name": "Zeros"}, "beta_constraint": null, "name": "batch_normalization_32", "center": true, "axis": -1, "moving_variance_initializer": {"config": {}, "class_name": "Ones"}, "gamma_regularizer": null, "trainable": true, "momentum": 0.99, "beta_regularizer": null, "gamma_constraint": null, "gamma_initializer": {"config": {}, "class_name": "Ones"}}, "name": "batch_normalization_32", "inbound_nodes": [[["separable_conv2d_28", 0, 0, {}]]], "class_name": "BatchNormalization"}, {"config": {"name": "activation_26", "trainable": true, "activation": "relu"}, "name": "activation_26", "inbound_nodes": [[["batch_normalization_32", 0, 0, {}]]], "class_name": "Activation"}, {"config": {"kernel_size": [3, 3], "dilation_rate": [1, 1], "use_bias": false, "pointwise_initializer": {"config": {"seed": null, "distribution": "uniform", "mode": "fan_avg", "scale": 1.0}, "class_name": "VarianceScaling"}, "name": "separable_conv2d_29", "depthwise_regularizer": null, "depthwise_constraint": null, "depthwise_initializer": {"config": {"seed": null, "distribution": "uniform", "mode": "fan_avg", "scale": 1.0}, "class_name": "VarianceScaling"}, "bias_constraint": null, "depth_multiplier": 1, "filters": 128, "activation": "linear", "bias_initializer": {"config": {}, "class_name": "Zeros"}, "strides": [1, 1], "padding": "same", "data_format": "channels_last", "pointwise_regularizer": null, "activity_regularizer": null, "pointwise_constraint": null, "bias_regularizer": null, "trainable": true}, "name": "separable_conv2d_29", "inbound_nodes": [[["activation_26", 0, 0, {}]]], "class_name": "SeparableConv2D"}, {"config": {"beta_initializer": {"config": {}, "class_name": "Zeros"}, "epsilon": 0.001, "scale": true, "moving_mean_initializer": {"config": {}, "class_name": "Zeros"}, "beta_constraint": null, "name": "batch_normalization_33", "center": true, "axis": -1, "moving_variance_initializer": {"config": {}, "class_name": "Ones"}, "gamma_regularizer": null, "trainable": true, "momentum": 0.99, "beta_regularizer": null, "gamma_constraint": null, "gamma_initializer": {"config": {}, "class_name": "Ones"}}, "name": "batch_normalization_33", "inbound_nodes": [[["separable_conv2d_29", 0, 0, {}]]], "class_name": "BatchNormalization"}, {"config": {"name": "activation_27", "trainable": true, "activation": "relu"}, "name": "activation_27", "inbound_nodes": [[["batch_normalization_33", 0, 0, {}]]], "class_name": "Activation"}, {"config": {"kernel_size": [3, 3], "dilation_rate": [1, 1], "use_bias": false, "pointwise_initializer": {"config": {"seed": null, "distribution": "uniform", "mode": "fan_avg", "scale": 1.0}, "class_name": "VarianceScaling"}, "name": "separable_conv2d_30", "depthwise_regularizer": null, "depthwise_constraint": null, "depthwise_initializer": {"config": {"seed": null, "distribution": "uniform", "mode": "fan_avg", "scale": 1.0}, "class_name": "VarianceScaling"}, "bias_constraint": null, "depth_multiplier": 1, "filters": 128, "activation": "linear", "bias_initializer": {"config": {}, "class_name": "Zeros"}, "strides": [1, 1], "padding": "same", "data_format": "channels_last", "pointwise_regularizer": null, "activity_regularizer": null, "pointwise_constraint": null, "bias_regularizer": null, "trainable": true}, "name": "separable_conv2d_30", "inbound_nodes": [[["activation_27", 0, 0, {}]]], "class_name": "SeparableConv2D"}, {"config": {"beta_initializer": {"config": {}, "class_name": "Zeros"}, "epsilon": 0.001, "scale": true, "moving_mean_initializer": {"config": {}, "class_name": "Zeros"}, "beta_constraint": null, "name": "batch_normalization_34", "center": true, "axis": -1, "moving_variance_initializer": {"config": {}, "class_name": "Ones"}, "gamma_regularizer": null, "trainable": true, "momentum": 0.99, "beta_regularizer": null, "gamma_constraint": null, "gamma_initializer": {"config": {}, "class_name": "Ones"}}, "name": "batch_normalization_34", "inbound_nodes": [[["separable_conv2d_30", 0, 0, {}]]], "class_name": "BatchNormalization"}, {"config": {"trainable": true, "name": "add_11"}, "name": "add_11", "inbound_nodes": [[["batch_normalization_34", 0, 0, {}], ["add_10", 0, 0, {}]]], "class_name": "Add"}, {"config": {"kernel_size": [3, 3], "dilation_rate": [1, 1], "use_bias": false, "pointwise_initializer": {"config": {"seed": null, "distribution": "uniform", "mode": "fan_avg", "scale": 1.0}, "class_name": "VarianceScaling"}, "name": "separable_conv2d_31", "depthwise_regularizer": null, "depthwise_constraint": null, "depthwise_initializer": {"config": {"seed": null, "distribution": "uniform", "mode": "fan_avg", "scale": 1.0}, "class_name": "VarianceScaling"}, "bias_constraint": null, "depth_multiplier": 1, "filters": 128, "activation": "linear", "bias_initializer": {"config": {}, "class_name": "Zeros"}, "strides": [1, 1], "padding": "same", "data_format": "channels_last", "pointwise_regularizer": null, "activity_regularizer": null, "pointwise_constraint": null, "bias_regularizer": null, "trainable": true}, "name": "separable_conv2d_31", "inbound_nodes": [[["add_11", 0, 0, {}]]], "class_name": "SeparableConv2D"}, {"config": {"name": "activation_28", "trainable": true, "activation": "relu"}, "name": "activation_28", "inbound_nodes": [[["separable_conv2d_31", 0, 0, {}]]], "class_name": "Activation"}, {"config": {"beta_initializer": {"config": {}, "class_name": "Zeros"}, "epsilon": 0.001, "scale": true, "moving_mean_initializer": {"config": {}, "class_name": "Zeros"}, "beta_constraint": null, "name": "batch_normalization_35", "center": true, "axis": -1, "moving_variance_initializer": {"config": {}, "class_name": "Ones"}, "gamma_regularizer": null, "trainable": true, "momentum": 0.99, "beta_regularizer": null, "gamma_constraint": null, "gamma_initializer": {"config": {}, "class_name": "Ones"}}, "name": "batch_normalization_35", "inbound_nodes": [[["activation_28", 0, 0, {}]]], "class_name": "BatchNormalization"}, {"config": {"kernel_size": [3, 3], "dilation_rate": [1, 1], "use_bias": false, "pointwise_initializer": {"config": {"seed": null, "distribution": "uniform", "mode": "fan_avg", "scale": 1.0}, "class_name": "VarianceScaling"}, "name": "separable_conv2d_32", "depthwise_regularizer": null, "depthwise_constraint": null, "depthwise_initializer": {"config": {"seed": null, "distribution": "uniform", "mode": "fan_avg", "scale": 1.0}, "class_name": "VarianceScaling"}, "bias_constraint": null, "depth_multiplier": 1, "filters": 256, "activation": "linear", "bias_initializer": {"config": {}, "class_name": "Zeros"}, "strides": [1, 1], "padding": "same", "data_format": "channels_last", "pointwise_regularizer": null, "activity_regularizer": null, "pointwise_constraint": null, "bias_regularizer": null, "trainable": true}, "name": "separable_conv2d_32", "inbound_nodes": [[["batch_normalization_35", 0, 0, {}]]], "class_name": "SeparableConv2D"}, {"config": {"name": "activation_29", "trainable": true, "activation": "relu"}, "name": "activation_29", "inbound_nodes": [[["separable_conv2d_32", 0, 0, {}]]], "class_name": "Activation"}, {"config": {"beta_initializer": {"config": {}, "class_name": "Zeros"}, "epsilon": 0.001, "scale": true, "moving_mean_initializer": {"config": {}, "class_name": "Zeros"}, "beta_constraint": null, "name": "batch_normalization_36", "center": true, "axis": -1, "moving_variance_initializer": {"config": {}, "class_name": "Ones"}, "gamma_regularizer": null, "trainable": true, "momentum": 0.99, "beta_regularizer": null, "gamma_constraint": null, "gamma_initializer": {"config": {}, "class_name": "Ones"}}, "name": "batch_normalization_36", "inbound_nodes": [[["activation_29", 0, 0, {}]]], "class_name": "BatchNormalization"}, {"config": {"data_format": "channels_last", "trainable": true, "name": "global_average_pooling2d_1"}, "name": "global_average_pooling2d_1", "inbound_nodes": [[["batch_normalization_36", 0, 0, {}]]], "class_name": "GlobalAveragePooling2D"}, {"config": {"seed": null, "rate": 0.5, "name": "dropout_1", "trainable": true, "noise_shape": null}, "name": "dropout_1", "inbound_nodes": [[["global_average_pooling2d_1", 0, 0, {}]]], "class_name": "Dropout"}, {"config": {"kernel_regularizer": {"config": {"l1": 0.0, "l2": 0.0010000000474974513}, "class_name": "L1L2"}, "bias_initializer": {"config": {}, "class_name": "Zeros"}, "units": 8, "name": "dense_1", "use_bias": true, "activity_regularizer": null, "trainable": true, "activation": "linear", "kernel_initializer": {"config": {"seed": null, "distribution": "uniform", "mode": "fan_avg", "scale": 1.0}, "class_name": "VarianceScaling"}, "bias_regularizer": null, "bias_constraint": null, "kernel_constraint": {"config": {"max_value": 3, "axis": 0}, "class_name": "MaxNorm"}}, "name": "dense_1", "inbound_nodes": [[["dropout_1", 0, 0, {}]]], "class_name": "Dense"}, {"config": {"name": "activation_30", "trainable": true, "activation": "softmax"}, "name": "activation_30", "inbound_nodes": [[["dense_1", 0, 0, {}]]], "class_name": "Activation"}], "input_layers": [["input_1", 0, 0]], "output_layers": [["activation_30", 0, 0]], "name": "model_1"}, "keras_version": "2.1.3", "backend": "tensorflow", "class_name": "Model"}